data.pth (torch, 5418 bytes, 6 tensors)

l1.weight f4 [8, 54]
000000 eb 5e 8d 3e f9 0c fe 3e 7c cb 93 be 4f 72 72 be
       0.2761148 0.49619272 -0.28866184 -0.23676418
000010 67 cd af be c9 3f 26 3f 5f 86 51 bd 40 d8 90 be
       -0.34336397 0.6494108 -0.051153537 -0.28289986
000020 e3 22 30 be 5f f3 a9 be d2 5a 7e be a4 b0 2a bd
       -0.17200808 -0.3319349 -0.24839333 -0.041672364
000030 44 fd 20 3e f6 a9 09 be 9a cb e7 3e 5c e1 b7 bd
       0.15721613 -0.13443741 0.45272523 -0.08978531
000040 9b 22 0b be d2 6a ca 3e 0f 8c 61 3e e2 06 0e bf
       -0.1358742 0.39534622 0.22026084 -0.5547925
000050 1f 1a 8b 3e bb a8 0a bf a9 16 0e bf 7e a2 58 be
       0.27168366 -0.5416371 -0.55503327 -0.21155736
000060 01 f0 e1 bd 36 c6 99 be 44 16 03 3f e5 c2 03 3f
       -0.11032105 -0.30034035 0.5120585 0.5146926
000070 0f 5f 07 3f 8b ad 08 3f af b3 96 3e f9 b1 d8 bd
       0.5287942 0.53389806 0.29433963 -0.105808206
000080 d9 98 86 3e 39 d4 c4 be 66 c0 25 3f 7c 30 d9 bd
       0.26288489 -0.38443163 0.647467 -0.10604951
000090 93 7f 0b 3f d4 9d 31 be 3d 78 56 be 53 d9 57 be
       0.5449154 -0.17345363 -0.20944305 -0.21078996
0000a0 78 c0 b2 3e 55 74 bd 3e 0d 8b d4 3d dc 8d 0f 3f
       0.34912467 0.37002817 0.10378084 0.56075835
0000b0 82 c4 97 be 19 46 0c 3f d9 b3 0f 3f e8 a4 b0 3e
       -0.2964211 0.5479446 0.561338 0.34500813
0000c0 12 79 8d 3e e9 4d f7 3e e4 5a a2 bc ea b4 92 3e
       0.27631432 0.48301628 -0.01981873 0.2865365
0000d0 9a 7d d1 3c 16 68 93 3e 2e f2 a7 bd c5 ea 2e 3d
       0.025572587 0.2879035 -0.08200489 0.042704362
0000e0 04 dc 19 be 37 0d 11 3e 80 a7 3b 3d 01 71 08 3f
       -0.15025336 0.14165197 0.045814037 0.5329743
0000f0 a9 5d 84 bd 08 f4 ee be 31 2d 8a be 21 d2 8a be
       -0.06463177 -0.46670556 -0.26987603 -0.2711344
000100 aa aa 3e 3e d9 59 df 3e 25 f7 9e be 9e c8 04 3f
       0.1861979 0.43623236 -0.3104793 0.5186862
000110 83 21 c5 bd c0 49 1c 3e 02 ab 01 3e d9 76 fd 3e
       -0.096255325 0.15262508 0.1266289 0.49504736
000120 74 46 29 3e 2f 0c 6d 3e d7 0e 78 be 62 29 1d 3e
       0.16530782 0.23149179 -0.24224411 0.15347818
000130 ea 5e 39 3e a0 45 2d 3f 21 97 2e bd 56 1f d2 bd
       0.18102613 0.67684364 -0.042624597 -0.10259883
000140 44 f8 18 be dc 11 a1 bd 7d 75 1b bd a7 9f 92 3c
       -0.14938456 -0.078647345 -0.037953842 0.017898394
000150 32 70 9e 3e 17 01 1e 3f 61 49 08 be 48 66 a3 bd
       0.30944973 0.6172041 -0.13309242 -0.07978493
000160 d7 92 14 be f8 97 34 3e 63 a4 f0 3c 73 aa a1 be
       -0.1450914 0.17636096 0.02937526 -0.31575355
000170 91 15 a3 bd 94 91 27 be 64 db 88 3e ca 2a a7 3d
       -0.07963098 -0.16364127 0.26729882 0.08162458
000180 81 0e bb 3e 1b 6d 52 be 75 4b 02 3f 89 7e c7 bc
       0.36534503 -0.20549433 0.5089639 -0.024352329
000190 5d 87 0a bf 4b cd 30 be a6 08 bd 3d 90 b1 4d be
       -0.541128 -0.17265813 0.09230165 -0.20087266
0001a0 7e 08 9b 3e 78 70 31 bd bf 06 43 be b2 34 c8 ba
       0.30279917 -0.04332015 -0.19045542 -0.0015274493
0001b0 b3 8e 3e be 95 0f da be b8 c0 18 3f 54 79 b0 3e
       -0.18609123 -0.42590013 0.59669065 0.34467566
0001c0 a9 97 48 3f 59 24 c4 be 01 07 fc 3e 91 16 fd 3e
       0.78356415 -0.3830898 0.49224094 0.4943128
0001d0 90 b9 16 3f 2e 96 03 3f d4 0c d4 3e 95 40 71 be
       0.58876896 0.5140103 0.41416037 -0.23559792
0001e0 fb 4b 26 3f e0 a6 45 be a3 99 eb bd 29 53 be bd
       0.64959687 -0.19301939 -0.11503913 -0.09293205
0001f0 8f 9d 07 3f 44 f0 f9 be 2f 5d ff 3e ed 10 15 3f
       0.5297479 -0.4881612 0.4987578 0.5822895
000200 90 2f a9 bd 63 bb fa 3e 28 d7 47 3f 22 d3 37 3e
       -0.08261025 0.4897109 0.7806268 0.17951635
000210 f6 c3 d1 3e 4a 50 c9 3e 82 d5 1f 3f e2 0d 08 bf
       0.4096982 0.39319068 0.6243516 -0.53146183
000220 e3 e9 65 3e 65 d5 e3 be 26 da be be d2 a0 52 be
       0.22452502 -0.44498745 -0.3727581 -0.2056916
000230 00 d0 78 bc d3 84 12 3f 17 dd 35 be df c8 a2 bd
       -0.01518631 0.57233924 -0.1776012 -0.07948469
000240 c5 8f c7 3e bc c8 35 3f a5 ae 12 3f e8 1b ed 3e
       0.38976875 0.7100942 0.57297736 0.46310353
000250 23 55 07 bf f7 08 d0 3e bc 92 71 be 98 f8 37 be
       -0.52864283 0.4063184 -0.23591131 -0.17965925
000260 49 25 0a bd bf a8 8b bc 4d 90 ea be 30 8a fa bd
       -0.033726964 -0.017048238 -0.45813218 -0.122333884
000270 e3 16 0f 3f e6 0c cf 3e 14 60 f3 bd 29 7e ef 3e
       0.558943 0.40439528 -0.1188356 0.4677594
000280 01 4c d2 3e bb 9b d3 3e 68 ea 96 bd 19 50 d7 be
       0.4107361 0.4132975 -0.07368928 -0.42053297
000290 ca b1 e3 3e b2 7d b7 3e 84 72 b4 3e 95 a8 d1 be
       0.4447158 0.35838085 0.35243618 -0.4094893
0002a0 e2 99 a5 3e 15 78 c1 3e 4a 9b 92 3e 1d 29 ca 3e
       0.32343966 0.37786928 0.286341 0.39484492
0002b0 4e 32 cf 3e 83 95 fc 3e 92 13 ab 3e a9 38 0c 3f
       0.40468067 0.49332818 0.33413368 0.54773957
0002c0 81 33 d6 bc d7 10 a3 3e b6 31 dd 3e ba 15 da be
       -0.026147606 0.31848785 0.4320199 -0.425947
0002d0 94 4f c3 3d 72 c1 26 3f 30 96 eb bd 61 cd 15 3f
       0.09536663 0.65138924 -0.11503255 0.5851651
0002e0 af ef d8 3e 2c ae 06 3f d5 00 19 3f cc 5b b8 3e
       0.42370364 0.52609515 0.59766895 0.36007535
0002f0 66 12 ae bd b0 05 ba be 76 3d 03 3d 35 62 f6 be
       -0.08499603 -0.36332464 0.032041036 -0.481218
000300 3c d9 92 be 32 fe 02 3f 50 8d 6e 3c fe 1b ca 3e
       -0.28681362 0.5116912 0.014560059 0.3947448
000310 b3 77 43 be 71 4d cd 3e e5 48 ef 3d 4c 0a 8e 3e
       -0.1908863 0.40098146 0.116838254 0.2774223
000320 f8 dc d5 3e 69 c7 65 3e 4a f0 9f be d7 13 0a 3d
       0.41770148 0.2243935 -0.31238014 0.033710327
000330 a8 06 c1 3e ac ed 49 be 9f b4 20 3f 9b 0d 47 be
       0.3770039 -0.19719571 0.62775606 -0.19438784
000340 97 c7 09 bf 76 fe 00 be 71 36 52 3e cf 40 c3 3d
       -0.53820175 -0.12597069 0.2052858 0.09533846
000350 22 89 fd 3e 47 1f 88 3b b4 c1 ba 3e d5 16 a5 3e
       0.49518687 0.004154119 0.3647591 0.32243982
000360 1b d6 18 3f 7e 47 55 3e de bb 91 3e 5b 58 a5 3e
       0.597017 0.20828053 0.28463644 0.32293972
000370 d9 1b 89 3e db fc 6b bd 04 4e 50 3e 9e 25 bc 3d
       0.2677906 -0.05761419 0.2034226 0.091868624
000380 c7 90 62 3e 0d e0 2e 3e dc 61 d7 3e 97 12 7f be
       0.2212554 0.17077656 0.42066848 -0.24909435
000390 96 1f 4b be 05 1b 8a be 7f d0 18 3d 82 26 62 be
       -0.19836268 -0.2697374 0.037308212 -0.22085002
0003a0 73 0a d3 3e da 91 ee 3c 6c 5e be be 46 be f0 3e
       0.4121891 0.029122282 -0.37181413 0.47020167
0003b0 2f 93 85 3e 60 ef 0f 3f 94 0b 02 3f a6 c5 05 3e
       0.26088855 0.5622463 0.50798917 0.13063678
0003c0 4d 92 a9 3d ab 40 19 3e 77 81 8d be ac f0 f4 bd
       0.08279858 0.14966075 -0.27637836 -0.11959967
0003d0 47 70 e5 bd 38 04 6b be 62 ea f2 bd b9 56 76 be
       -0.11203056 -0.22950828 -0.11861111 -0.2405652
0003e0 c6 f2 da 3e ab 3f 23 3e 9f 6d e7 bd ae 29 d1 bc
       0.42763346 0.15942256 -0.113002054 -0.02553257
0003f0 a9 fb a0 be aa b5 79 3b 56 94 62 3e 18 c0 45 3e
       -0.31442 0.0038102665 0.22126898 0.19311559

l1.bias f4 [8]
000000 32 19 0e 3f e1 81 0a 3f c6 e5 f9 3e 5e ae 1b 3f
       0.55507195 0.5410443 0.48808116 0.6081294
000010 3c 41 5a 3f fd 4a 51 3f ef f8 1e 3f 79 d0 b7 3e
       0.8525579 0.8175505 0.6209859 0.3590124

l2.weight f4 [8, 8]
000000 5a 98 65 bd c9 8e cc be b6 cb 16 3f 99 71 90 3e
       -0.056053497 -0.39952686 0.5890459 0.28211668
000010 30 15 9f 3f 29 95 63 3e a7 8b 80 3d a5 ad 22 bf
       1.2428341 0.22224869 0.062766366 -0.6354621
000020 ef 16 b7 3f db e6 b0 3e eb 9b 54 bf 07 fc 7b bf
       1.4303874 0.3455113 -0.8305041 -0.9843144
000030 01 79 33 3f c6 c3 91 3e 3b a2 92 3f 1e 3b 14 3f
       0.7010651 0.28469676 1.1455759 0.57902706
000040 c9 b7 8c be 38 5b aa 3f ae d6 2b bd b0 b6 c2 3e
       -0.27483967 1.3309088 -0.04195278 0.38030005
000050 02 a3 d9 3e 3b 12 9e 3f be 85 46 bf 7e 2e 93 be
       0.42507178 1.2349313 -0.77547824 -0.28746408
000060 fe 21 1a 3f 52 a7 93 3f 99 a5 27 3e df 48 37 3e
       0.6020812 1.1535437 0.16371764 0.17898892
000070 77 76 82 be 35 f8 a3 3f ae 17 6d bf d0 f0 94 3e
       -0.25481007 1.2810122 -0.9261426 0.29089975
000080 b8 e1 f6 be 3b fa 2a bf 81 96 36 3f b8 fd 8d 3f
       -0.48219085 -0.6678807 0.713234 1.1093054
000090 c0 ea 97 3f d2 c9 12 be 98 8f 1a 3f 98 68 53 bf
       1.1868515 -0.14334801 0.60375357 -0.8258147
0000a0 1d 5d 3e be 74 13 1d 3f 53 88 7a be 87 23 83 3f
       -0.18590207 0.6135781 -0.24466066 1.0245217
0000b0 43 5a b2 3d bd fd 63 3f 08 cb f2 be 49 d9 34 3f
       0.08708622 0.8905905 -0.47420526 0.7064405
0000c0 b3 18 96 3e d7 db 0e bf b3 c2 42 3f 41 29 ac 3e
       0.2931572 -0.558042 0.7607834 0.33625224
0000d0 d8 ce 84 be 3e ea 84 be f6 95 bf 3e f5 4a 6d 3f
       -0.2593906 -0.25959963 0.374191 0.926925
0000e0 7f 26 04 3f 69 d1 15 bf 06 54 4d 3f ac a1 d5 3e
       0.5162124 -0.5852266 0.80206335 0.41724908
0000f0 50 17 fb be 5c 51 06 bf 32 38 54 3e 31 77 8f 3f
       -0.49041224 -0.52467895 0.20724562 1.1208249

l2.bias f4 [8]
000000 91 14 ef 3e 69 a9 22 3f 4a 05 b1 3e 9c f9 15 3f
       0.46695378 0.6353975 0.34574348 0.58584
000010 30 68 c4 3e ff 63 aa 3e 11 58 d5 3e 38 5d bf 3c
       0.3836074 0.33279416 0.41668752 0.02335988

l3.weight f4 [7, 8]
000000 02 f9 af bf af 10 9f bf 33 b3 0f 3f fd 42 fa 3e
       -1.3747866 -1.2426966 0.5613281 0.48879233
000010 22 79 58 bf 45 b7 4f 3f 12 5c 12 bf f4 fe 78 bd
       -0.84559834 0.8113902 -0.5717174 -0.060790017
000020 33 20 b0 bf eb bb 5a 3f 7f 61 b6 be 4e 6d fc be
       -1.3759826 0.8544299 -0.3562126 -0.49302143
000030 3d d5 88 bf 52 76 a7 bf 3a 7e 4e 3e 7c b7 56 3e
       -1.0690075 -1.3082983 0.20165339 0.20968431
000040 03 02 ce bd ad 2c ec 3e cb 39 c6 3e 46 d8 b7 3e
       -0.100589775 0.46127835 0.38715968 0.3590719
000050 6d 6c c3 bf eb 21 75 3e 5b 7b 2c 3e 34 c8 ad bf
       -1.5267464 0.2393872 0.16843931 -1.3576722
000060 e6 ae 2b 3f 16 1a 8d bf 43 f4 09 3f 8d 74 c4 3e
       0.6706375 -1.1023586 0.5388834 0.3837017
000070 c4 94 16 3f c5 73 9a bd c6 f7 af be c5 35 98 bf
       0.5882075 -0.075416125 -0.34368724 -1.1891409
000080 c4 a9 41 bf ce 2b 66 be e4 be 30 bf 26 2e d4 3e
       -0.75649667 -0.22477648 -0.69041276 0.41441458
000090 2c 7b 22 bf d3 53 bd be af 85 f2 3e 13 4a 0b 3f
       -0.63469195 -0.36978015 0.47367617 0.54409903
0000a0 c8 21 ad 3e d5 af 99 bf 85 30 76 be d8 74 88 bf
       0.33814836 -1.2006785 -0.24041946 -1.0660658
0000b0 6e d2 25 3f 29 b9 0d be 81 ee d6 3e 2e d2 48 3d
       0.64774215 -0.13840164 0.4197884 0.049028568
0000c0 bc af 04 3f 33 94 21 3f b1 f1 1d bf 11 ff 11 bf
       0.5183065 0.6311676 -0.61696917 -0.57029825
0000d0 9e ea 11 3f 56 66 5c bf 61 a2 07 bf c5 9f 4a bf
       0.5699862 -0.8609365 -0.52982146 -0.7915004

l3.bias f4 [7]
000000 f6 2a 01 bd cd 44 35 be ee 64 5c 3e 79 f4 93 3a
       -0.03153511 -0.17702027 0.21522877 0.0011288068
000010 8b 30 83 bd 1e 72 8e 3d 52 7d 21 3e
       -0.06405743 0.0695536 0.15770462
